app/src/main/ml/medical_diagnosis_cnn_model_last.tflite (tflite, 679520 bytes, 12 tensors)

sequential/dense_1/BiasAdd/ReadVariableOp/resource f4 [3]
0.057527635 -0.026195062 -0.030057246
00000000: 19a2 6b3d 0797 d6bc 9d3a f6bc

sequential/dense/BiasAdd/ReadVariableOp/resource f4 [10]
0.07712265 -0.045242224 -0.05588456 -0.08939883 0.18868665 -0.060512647 0.19703963 0.1838448
0.056477334 -0.1900824
00000000: 7bf2 9d3d e94f 39bd 35e7 64bd bc16 b7bd
00000010: 1337 413e 1cdc 77bd c2c4 493e d041 3c3e
00000020: c754 673d f6a4 42be

sequential/dense/MatMul f4 [10, 16384]
-0.19439039 0.04269794 0.27671808 0.12229516 -0.35648927 0.020078424 0.2298849 -0.114658654
0.03232822 -0.5251348 0.046123456 0.47866324 0.18343619 0.029482802 -0.096395895 0.16328476
-0.21025181 -0.25672063 0.16703372 -0.031490352 -0.14955005 -0.020126112 -0.03929631 -0.24623735
0.048018537 -0.2518865 0.041380882 0.28663042 0.2340125 -0.08083315 -0.19937944 -0.057791043
-0.18835473 -0.18987241 -0.16953626 -0.09603085 -0.08508546 -0.029994695 -0.003391901 -0.08775732
0.053194538 -0.1677359 0.077460885 0.1625329 0.3389113 -0.11172995 -0.09601323 -0.11712698
-0.062419623 -0.110480405 -0.13361059 -0.04778857 -0.034339003 -0.27165085 -0.105734356 0.0067955176
0.045732398 -0.0268473 -0.053660393 0.052080583 0.3599778 -0.14742863 -0.17306921 -0.01822648
0.09423942 -0.09761068 -0.1501974 -0.00677948 -0.030511303 -0.14401525 -0.21263608 0.010198406
0.10415564 0.15495 0.009842908 0.22585103 0.22075191 -0.3190394 -0.2513274 0.016449738
-0.041382913 -0.2565922 -0.15072463 -0.09278358 -0.16713575 -0.18597606 -0.126967 0.09255551
0.018099142 0.09347703 0.14117727 0.21548955 0.01277458 -0.2761308 -0.10371085 -0.028211713
0.088060915 -0.17873181 -0.28668034 -0.07146177 0.10700954 -0.19912979 -0.04612152 0.076429866
-0.012061051 0.08070627 -0.028373431 0.07032526 -0.059979573 -0.21065097 -0.16078128 -0.0816859
0.030396238 -0.12057117 -0.14628705 -0.09906061 0.16839488 -0.08374269 -0.04399713 0.12990004
0.12602845 0.21471606 0.029237567 0.015270475 -0.026356183 -0.07710653 -0.21216816 -0.09918227
0.15084319 -0.043513853 -0.12316202 0.016820122 0.014905189 0.009533468 -0.020559069 0.1499912
-0.04399628 0.30697685 0.17335536 0.03534603 0.16183937 -0.07001801 -0.06958428 0.10445666
0.0043164915 -0.095538564 -0.011240456 0.019804759 -0.03379889 -0.08441948 -0.001585504 0.16236857
-0.060292363 0.32183716 -0.048512872 -0.037391398 0.19298036 0.10070341 -0.15204348 -0.19551568
-0.07791402 -0.16419208 -0.33208132 -0.06795087 -0.03970552 0.03722894 0.08446253 0.12865016
-0.03774442 0.27613267 -0.13739234 -0.11555436 0.184863 0.010491294 -0.2520082 -0.24143161
-0.06189891 -0.09532424 -0.3034209 0.06269983 -0.0038464237 0.039953396 0.07829774 0.16600105
-0.02148941 0.28343144 0.0019154141 -0.093752764 0.15572132 0.14097866 -0.13937062 -0.1667992
-0.042065784 0.026287107 -0.17428537 0.15941764 -0.08944302 -0.10210206 0.056838036 0.1883013
-0.05247942 0.19921765 -0.12311139 -0.080479965 0.12249438 0.1910712 0.031409945 -0.11182496
0.0008963634 -0.023196088 -0.033092044 0.16721533 -0.030381322 0.0047979434 0.06319766 0.19116132
0.12610364 0.31150314 -0.09044397 -0.031453237 0.13998246 0.056519505 -0.08042449 -0.07294519
0.11109076 0.07682313 -0.17460816 0.14922388 0.030137124 -0.026130896 0.021465544 0.2197513
0.15332709 0.3060756 0.027519902 0.10117772 -0.02112815 0.10726868 0.038894784 0.10465262
0.009283485 0.05585808 -0.31040096 0.13294548 -0.045248255 -0.08566241 0.03514595 0.2893037
0.05533135 0.32367557 -0.12087141 0.018741805 0.07384459 0.023137167 -0.31946674 0.01939904
00000000: 460e 47be 09e4 2e3d fead 8d3e e375 fa3d
00000010: c385 b6be 827b a43c f266 6b3e 28d2 eabd
00000020: 986a 043d 3c6f 06bf f3eb 3c3d 5913 f53e
00000030: b2d6 3b3e eb85 f13c 366b c5bd 1f34 273e
00000040: 404c 57be e370 83be e30a 2b3e 07fc 00bd
00000050: a623 19be 84df a4bc 2bf5 20bd a525 7cbe
00000060: 16af 443d 44f7 80be 007f 293d 39c1 923e
00000070: f9a0 6f3e da8b a5bd 202a 4cbe 4db6 6cbd
00000080: 10e0 40be ea6d 42be ea9a 2dbe d3ab c4bd
00000090: 4941 aebd 6fb7 f5bc a84a 5ebb 1cba b3bd
000000a0: 84e2 593d f6c2 2bbe d0a3 9e3d 066f 263e
000000b0: c885 ad3e acd2 e4bd 96a2 c4bd 45e0 efbd
000000c0: b8ab 7fbd 8d43 e2bd 37d1 08be f3bd 43bd
000000d0: 0ea7 0cbd d215 8bbe 418b d8bd efac de3b
000000e0: e551 3b3d deee dbbc 00cb 5bbd 7352 553d
000000f0: 034f b83e 88f7 16be 0e39 31be b34f 95bc
00000100: 9900 c13d 1ce8 c7bd 59cd 19be 6626 debb
00000110: d7f2 f9bc bc78 13be 46bd 59be 3717 273c
00000120: 8d4f d53d 36ab 1e3e 2644 213c 7e45 673e
00000130: ca0c 623e 2259 a3be fcad 80be 9ac1 863c
00000140: 2181 29bd 0e60 83be 8f57 1abe 5105 bebd
00000150: a225 2bbe 8270 3ebe a303 02be be8d bd3d
00000160: a744 943c e370 bf3d c690 103e 4ba9 5c3e
00000170: 794c 513c 0461 8dbe 5b66 d4bd 401c e7bc
00000180: 4859 b43d 7905 37be c4c7 92be 8c5a 92bd
00000190: d127 db3d aee8 4bbe ebe9 3cbd 4387 9c3d
000001a0: b79b 45bc 5449 a53d 666f e8bc b106 903d
000001b0: 24ad 75bd e3b4 57be d9a3 24be f04a a7bd
000001c0: 8801 f93c 04ee f6bd 46cc 15be 4ae0 cabd
000001d0: b56f 2c3e 4a81 abbd 5636 34bd 8404 053e
000001e0: 9a0d 013e 87de 5b3e 9f83 ef3c 0431 7a3c
000001f0: ece8 d7bc 07ea 9dbd 9c42 59be 1320 cbbd
00000200: a376 1a3e 953b 32bd 5f3c fcbd 5aca 893c
00000210: e534 743c 4332 1c3c 7e6b a8bc 4b97 193e
00000220: 7135 34bd 122c 9d3e 1184 313e 00c7 103d
00000230: 38b9 253e 9a65 8fbd 3482 8ebd 60ed d53d
00000240: 5b71 8d3b b9a9 c3bd e429 38bc 973d a23c
00000250: b470 0abd 1fe4 acbd b0d0 cfba f243 263e
00000260: 20f5 76bd d7c7 a43e 6fb5 46bd b927 19bd
00000270: a59c 453e 973d ce3d 49b1 1bbe 4335 48be
00000280: 6391 9fbd f821 28be 9006 aabe d329 8bbd
00000290: 41a2 22bd 5f7d 183d b1fa ac3d debc 033e
000002a0: e599 1abd 4361 8d3e 94b0 0cbe c4a7 ecbd
000002b0: ba4c 3d3e ade3 2b3c 3807 81be d939 77be
000002c0: b689 7dbd 5b39 c3bd fc59 9bbe c568 803d
000002d0: 4814 7cbb 2ca6 233d 915a a03d 2efc 293e
000002e0: 8f0a b0bc ed1d 913e a20e fb3a 7301 c0bd
000002f0: 6975 1f3e b65c 103e 2cb7 0ebe 69cd 2abe
00000300: 2c4d 2cbd 0f58 d73c dd77 32be 613e 233e
00000310: e72d b7bd e31a d1bd 00cf 683d 0ed2 403e
00000320: a9f4 56bd b6ff 4b3e d321 fcbd aed2 a4bd
00000330: 55de fa3d 2ba8 433e b7a7 003d 7c04 e5bd
00000340: eef9 6a3a b905 bebc 868b 07bd 7f3a 2b3e
00000350: 40e2 f8bc 1138 9d3b c66d 813d cbbf 433e
00000360: 5021 013e 577d 9f3e b03a b9bd 1cd5 00bd
00000370: 9057 0f3e ff80 673d 98b5 a4bd 4a64 95bd
00000380: 8d83 e33d 7255 9d3d 7bcc 32be 25ce 183e
00000390: 21e2 f63c 7610 d6bc 82d8 af3c 7c06 613e
000003a0: c701 1d3e f1b5 9c3e 6b71 e13c 4436 cf3d
000003b0: f114 adbc afaf db3d 2350 1f3d 1d54 d63d
000003c0: c219 183c 71cb 643d e0ec 9ebe dc22 083e
000003d0: 3c56 39bd c66f afbd 33f5 0f3d 9d1f 943e
000003e0: 20a3 623d ceb8 a53e 6e8b f7bd 6a88 993c
000003f0: d53b 973d 288a bd3c 2591 a3be bcea 9e3c

sequential/dense_1/MatMul f4 [3, 10]
0.6923744 -0.041691486 -0.07295644 -0.14849351 -0.07934784 0.20749365 0.1999077 0.4810794
-0.11505051 0.030288983 0.42187324 0.32631615 0.4029854 0.2934912 -0.42342722 0.45541337
0.25994167 0.50201935 -0.37085614 0.50842506 0.29003513 -0.2115383 0.28208053 0.27295822
-0.45158562 0.53820443 -0.5211533 0.26514155 -0.011655659 0.21045198
00000000: 733f 313f b1c4 2abd 306a 95bd af0e 18be
00000010: 1f81 a2bd 3779 543e 9bb4 4c3e 0a50 f63e
00000020: 9a9f ebbd 9a20 f83c c5ff d73e e912 a73e
00000030: 1a54 ce3e 7b44 963e 74cb d8be f12b e93e
00000040: 1317 853e 5784 003f dbe0 bdbe 2528 023f
00000050: 7c7f 943e 7f9d 58be dc6c 903e 2ec1 8b3e
00000060: 3b36 e7be c4c7 093f 4d6a 05bf a2c0 873e
00000070: 61f7 3ebc b980 573e

sequential/conv2d/Conv2D f4 [8, 5, 5, 3]
-0.23703223 -0.20680083 -0.3291813 -0.10653757 -0.09265838 -0.24515562 -0.16113885 0.020141589
-0.21689777 -0.006356688 0.0018543992 0.003875945 0.16339567 0.044106647 -0.0074175913 -0.13647667
-0.23266007 -0.23815697 -0.053567383 -0.22259425 -0.22693808 -0.010778605 -0.11026298 0.0039000083
-0.037096918 0.016010659 0.16538224 0.12188729 0.114451826 0.059439164 0.29727507 0.23766778
0.043490555 0.07098785 -0.00040086638 0.138818 0.13349395 -0.07262384 -0.100511454 -0.12136582
-0.09366567 -0.05270512 0.15433046 0.09155593 0.15790147 0.36215028 0.335779 0.42573035
0.110905066 0.0774503 0.09094639 -0.2577065 -0.13002127 -0.20622203 -0.12553525 -0.19302742
-0.25575727 0.09060273 -0.14299096 -0.113500446 -0.0061656483 -0.13162288 -0.1815531 -0.27869394
-0.18067747 -0.3119672 -0.1797678 -0.3048621 -0.4220348 -0.017618345 -0.22403423 -0.08189235
-0.014679678 -0.16141063 -0.03359883 -0.13371395 -0.021540953 0.046386175 -0.12684312 -0.08578717
0.10987816 0.08621442 -0.047893886 0.21456107 0.18355466 0.23998849 0.25838444 0.16277987
-0.018499706 0.010756829 -0.16476683 -0.032850195 0.04707056 0.24114992 0.03500997 0.27891877
0.11055556 0.3745829 0.30559248 0.36782968 0.3898648 0.414433 0.13961104 0.29266742
0.11579825 -0.08140865 -0.2826332 -0.24083626 -0.16087928 0.07456651 0.034391154 0.14261562
0.029111529 0.041484397 0.30145934 0.17090677 0.09156517 0.2777314 0.1390312 0.028715234
-0.32617372 -0.26716298 -0.30903602 -0.3122323 -0.050321184 -0.019562202 -0.26138222 -0.13068868
-0.07534229 -0.1214265 0.11874424 0.052394792 0.1721211 -0.054057684 0.18024078 -0.29380903
-0.39398864 -0.28207362 -0.20649897 -0.12235708 -0.19660063 -0.32113862 -0.25530088 -0.2940839
0.020491779 -0.010239394 -0.2102684 -0.052474823 0.021119677 0.1265965 0.22364847 0.07360683
0.19484717 -0.19359446 -0.07470117 -0.10206101 -0.25398257 -0.27049983 -0.26579735 -0.17172508
-0.20656699 -0.0072770966 0.028232712 -0.097412184 -0.15827839 0.18568307 0.17403328 0.33970317
-0.042637225 -0.05579022 0.020111501 -0.17650561 -0.13486494 -0.18441013 -0.095156886 -0.18284947
0.031524226 0.04375291 0.013820982 -0.12773305 0.29288298 0.37108675 0.3574476 -0.08427293
-0.007116239 -0.15760589 -0.105066225 -0.15733624 -0.20126604 -0.24684261 -0.12281412 -0.18908213
-0.06489171 -0.043374836 0.043236937 0.065741315 0.19344084 0.066533595 -0.06504838 0.026077442
-0.13289957 -0.18361337 -0.19369785 -0.15094978 0.0015553383 0.113464355 -0.14153427 0.22175771
0.25346756 0.14450055 -0.04620265 0.070679866 -0.13495524 0.03218424 -0.22756365 -0.18151625
-0.13621031 -0.24928956 -0.1537523 -0.039606303 0.020898096 0.097398244 0.24245782 0.108123764
0.221315 -0.1343764 0.04882138 -0.13176396 -0.025980696 -0.079815045 -0.040934417 0.012224329
0.16332722 -0.06226837 0.09297976 0.2081131 0.041914664 0.043019187 -0.09389245 0.1934322
-0.074084125 0.05100799 -0.04601421 -0.17053686 -0.19165066 -0.115886874 -0.16760984 -0.0076416912
-0.06913975 -0.030374052 -0.07647547 0.079707325 0.035013095 0.023704432 -0.012424339 0.015971193
00000000: 94b8 72be 99c3 53be 748a a8be 5f30 dabd
00000010: adc3 bdbd 130a 7bbe 9501 25be f9ff a43c
00000020: 731a 5ebe c44b d0bb 500f f33a 9103 7e3b
00000030: 3251 273e 2ca9 343d 440f f3bb 8ac0 0bbe
00000040: 713e 6ebe 6cdf 73be 7969 5bbd bfef 63be
00000050: 7562 68be bf98 30bc 8fd1 e1bd 4897 7f3b
00000060: f0f2 17bd c928 833c f659 293e 0ba0 f93d
00000070: b865 ea3d 7b76 733d 7034 983e 2f5f 733e
00000080: 2723 323d 1462 913d 602b d2b9 4e26 0e3e
00000090: a3b2 083e cfbb 94bd f3d8 cdbd a58e f8bd
000000a0: c9d3 bfbd 53e1 57bd ce08 1e3e ad81 bb3d
000000b0: ecb0 213e c36b b93e 3aeb ab3e 54f9 d93e
000000c0: 3222 e33d 439e 9e3d 1a42 ba3d 1bf2 83be
000000d0: 4c24 05be de2b 53be 508c 00be fba8 45be
000000e0: 9ef2 82be ed8d b93d 396c 12be ec72 e8bd
000000f0: 3509 cabb 26c8 06be 0ee9 39be f9b0 8ebe
00000100: 8403 39be 2aba 9fbe 0d15 38be e316 9cbe
00000110: f214 d8be 5954 90bc 3b69 65be 2db7 a7bd
00000120: 0883 70bc d448 25be ed9e 09bd 4fec 08be
00000130: a776 b0bc 6eff 3d3d 2ae3 01be 2fb1 afbd
00000140: cd07 e13d 3091 b03d 612c 44bd e6b5 5b3e
00000150: c1f5 3b3e 8bbf 753e f74a 843e c4af 263e
00000160: b28c 97bc 693d 303c a3b8 28be ed8d 06bd
00000170: 0fcd 403d 01f0 763e 9d66 0f3d 71ce 8e3e
00000180: f46a e23d 54c9 bf3e 9e76 9c3e 2c54 bc3e
00000190: 5c9c c73e 9030 d43e 32f6 0e3e 81d8 953e
000001a0: a227 ed3d 94b9 a6bd 4cb5 90be c89d 76be
000001b0: 8abd 24be 54b6 983d bddd 0c3d d409 123e
000001c0: 4d7b ee3c 8beb 293d e158 9a3e 2f02 2f3e
000001d0: 8586 bb3d cf32 8e3e 325e 0e3e 363c eb3c
000001e0: 3e00 a7be 96c9 88be f839 9ebe e9dc 9fbe
000001f0: 961d 4ebd e940 a0bc e4d3 85be 41d3 05be
00000200: 0f4d 9abd 75ae f8bd 2e30 f33d ec9b 563d
00000210: 8340 303e 976b 5dbd 0a91 383e 236e 96be
00000220: e1b8 c9be f46b 90be 7774 53be 5996 fabd
00000230: ad51 49be 486c a4be ccb6 82be 2a92 96be
00000240: 60de a73c 22c3 27bc 9950 57be d7ef 56bd
00000250: 2c03 ad3c 83a2 013e 1b04 653e 2dbf 963d
00000260: 0486 473e a03d 46be edfc 98bd 5d05 d1bd
00000270: 010a 82be f47e 8abe 9716 88be b3d8 2fbe
00000280: 4c86 53be b674 eebb 4a48 e73c 0a80 c7bd
00000290: bb13 22be b423 3e3e c835 323e 93ed ad3e
000002a0: 5fa4 2ebd 4984 64bd e0c0 a43c e3bd 34be
000002b0: 091a 0abe 02d6 3cbe 9de1 c2bd e43c 3bbe
000002c0: 8c1f 013d 4036 333d 6671 623c 74cc 02be
000002d0: c2f4 953e 15ff bd3e 5f03 b73e 4997 acbd
000002e0: 572f e9bb 7063 21be f62c d7bd c01c 21be
000002f0: af18 4ebe 4fc4 7cbe f885 fbbd bf9e 41be
00000300: f2e5 84bd d0a9 31bd 3719 313d 62a3 863d
00000310: 5b15 463e c442 883d 1638 85bd 5ca0 d53c
00000320: d316 08be 2505 3cbe bb58 46be 9492 1abe
00000330: 7edc cb3a 0060 e83d 5cee 10be 7414 633e
00000340: 80c6 813e f4f7 133e fd3e 3dbd 9bc0 903d
00000350: b531 0abe 9fd3 033d 7206 69be 65df 39be
00000360: b77a 0bbe c345 7fbe 3e71 1dbe 383a 22bd
00000370: 7c32 ab3c bb78 c73d dd46 783e fe6f dd3d
00000380: 66a0 623e f899 09be edf8 473d 22ed 06be
00000390: 78d5 d4bc 1276 a3bd d9aa 27bd 8d48 483c
000003a0: 403f 273e 1e0d 7fbd 2c6c be3d 9a1b 553e
000003b0: b6ae 2b3d e334 303d af4a c0bd 1713 463e
000003c0: 6bb9 97bd c1ed 503d 6579 3cbd 37a1 2ebe
000003d0: 1240 44be 1956 edbd eaa1 2bbe 2767 fabb
000003e0: 2499 8dbd 01d3 f8bc 2c9f 9cbd 983d a33d
000003f0: e469 0f3d cc2f c23c 748f 4bbc 05d6 823c

sequential/conv2d_1/Conv2D f4 [8, 3, 3, 8]
0.43644586 0.12497994 0.060857523 0.5690778 0.20990929 0.14537404 0.12453243 -0.099822745
0.3139529 0.09550469 -0.11685838 -0.006458716 -0.2210608 0.2195137 0.33067784 -0.23826432
0.47182646 -0.19572958 0.46656954 0.2242235 -0.3699748 -0.3264348 0.35523424 0.23671652
0.13414069 -0.07309594 -0.020846138 -0.34095514 0.26713237 0.42735076 -0.26398087 -0.19337481
0.15989771 0.038473375 -0.16610076 -0.098431915 0.13229564 -0.058273535 -0.040234316 -0.12019434
0.37098515 -0.14641353 0.40874806 0.29357406 -0.115590155 -0.25585955 -0.22281803 -0.031652674
0.22394559 -0.22691905 0.037230007 -0.08710211 -0.10942088 0.26921046 0.1281538 0.0025873543
0.29686016 -0.115011245 -0.034623817 0.091546126 -0.10973859 -0.0004175816 -0.09895651 0.25814146
0.123256035 -0.089764364 -0.081199996 0.119432695 -0.29029644 -0.2469104 -0.2952902 0.19437225
0.1343471 0.008274715 -0.075733475 -0.22217163 0.0051305257 -0.32616073 0.20520516 0.090008445
0.22127265 0.059846 -0.13973749 -0.0203871 -0.00033157383 -0.12886946 0.05844909 0.25501388
-0.078521125 0.07850314 0.33206984 0.007500125 -0.004617684 0.29830995 -0.40525827 -0.3821395
-0.19943103 -0.09451522 0.021117426 -0.099636674 0.36324817 -0.29416892 -0.25041878 0.090849325
0.20276092 -0.29708067 -0.21712667 0.14626965 -0.031529047 0.3950245 -0.29032946 0.08872776
-0.055848453 -0.20564936 -0.09032344 -0.07756408 -0.3441165 -0.18236454 0.12045021 -0.29928142
0.0664224 0.23207697 -0.20415606 -0.03451611 0.097185574 -0.37466264 -0.036911912 -0.1223131
-0.19457257 0.08797133 -0.016899437 0.20347545 -0.24986362 0.11724292 -0.2138383 -0.41626993
0.28292912 0.034167368 0.0027883095 -0.08461158 -0.063710496 -0.08214924 0.46025574 0.6042593
-0.2565872 -0.21737838 0.2442368 -0.24628459 -0.23567206 0.14700213 -0.26943988 -0.09036219
-0.18048783 -0.09807148 0.020734556 0.021341339 -0.2265856 0.20332165 0.27459827 0.051503513
0.104449816 -0.18398887 -0.31318128 -0.16834544 -0.25118542 -0.2445019 0.08272104 0.054229487
-0.13240767 0.19411139 0.17070247 -0.06228521 -0.0056442283 0.00068819727 -0.34715933 -0.2060571
0.07151104 -0.051895056 -0.046108816 0.061970852 -0.23138621 -0.081455976 0.08413857 0.03308178
-0.08095144 -0.0043043015 -0.1941283 0.20464659 -0.0616853 -0.16261573 0.012202724 0.23963253
-0.34905368 0.23341763 -0.10263444 -0.19041088 0.15554972 0.29179627 0.2326715 -0.30710927
-0.2909777 0.2382544 -0.31654847 0.062804826 0.18232019 -0.056437176 0.13165359 0.1411151
-0.061889537 -0.23065582 -0.1736717 -0.028754666 0.11264824 -0.24592966 -0.23595029 0.08508126
-0.08136375 -0.24620037 0.23836724 0.03239164 -0.059408307 -0.11102447 -0.08020475 0.14925049
0.053705536 -0.20278884 0.012259514 0.082395434 -0.35474312 0.24185091 -0.038315464 -0.19473816
0.3296691 -0.4278333 -0.058101833 0.13490546 -0.382557 0.056505695 0.13077193 0.18010737
0.22008502 -0.13789038 0.10419724 -0.0019406036 0.20744741 -0.33643767 0.26971313 0.1859008
0.042235907 0.18630089 -0.14872774 -0.22703503 -0.14677805 -0.5843409 -0.094210394 -0.3508581
00000000: d575 df3e 7cf5 ff3d bd45 793d 15af 113f
00000010: 76f2 563e efdc 143e dc0a ff3d de6f ccbd
00000020: 6fbe a03e f797 c33d 7253 efbd a3a3 d3bb
00000030: c35d 62be 33c8 603e 9b4e a93e 90fb 73be
00000040: 3d93 f13e 566d 48be 34e2 ee3e d89a 653e
00000050: 566d bdbe 7622 a7be 43e1 b53e d165 723e
00000060: 2d5c 093e 53b3 95bd 85c5 aabc ac91 aebe
00000070: 93c5 883e b8cd da3e 8028 87be 0c04 46be
00000080: 3abc 233e 4296 1d3d 5116 2abe ac96 c9bd
00000090: 8278 073e 3bb0 6ebd bdcc 24bd 7328 f6bd
000000a0: c4f1 bd3e 6eed 15be 6d47 d13e 574f 963e
000000b0: 88ba ecbd 0600 83be 692a 64be 3ca6 01bd
000000c0: fe51 653e 785d 68be 7e7e 183d 9762 b2bd
000000d0: 0e18 e0bd f4d5 893e c03a 033e 9a90 293b
000000e0: 0efe 973e 048b ebbd b4d1 0dbd 897c bb3d
000000f0: a0be e0bd dbee dab9 b6a9 cabd 1e2b 843e
00000100: a96d fc3d 61d6 b7bd 2f4c a6bd 2199 f43d
00000110: bca1 94be 14d6 7cbe 4730 97be 8509 473e
00000120: 4992 093e ac92 073c 271a 9bbd f680 63be
00000130: f81d a83b 8afe a6be 4d21 523e 5956 b83d
00000140: 4c95 623e 1421 753d 5817 0fbe d902 a7bc
00000150: 16d7 adb9 5bf6 03be 5068 6f3d 2e91 823e
00000160: afcf a0bd 41c6 a03d 0f05 aa3e 9cc3 f53b
00000170: f14f 97bb 15bc 983e 037e cfbe caa7 c3be
00000180: a637 4cbe 3291 c1bd 74fe ac3c 500e ccbd
00000190: aafb b93e 4f9d 96be e436 80be 360f ba3d
000001a0: 8fa0 4f3e f51a 98be 7456 5ebe b6c7 153e
000001b0: 9a24 01bd a740 ca3e 10a6 94be e6b6 b53d
000001c0: 59c1 64bd bf95 52be 7ffb b8bd ebd9 9ebd
000001d0: 0a30 b0be c5bd 3abe 9aae f63d 6a3b 99be
000001e0: 7808 883d 96a5 6d3e 490e 51be c460 0dbd
000001f0: 3b09 c73d c8d3 bfbe f230 17bd 4a7f fabd
00000200: 083e 47be 502a b43d b070 8abc de5b 503e
00000210: 40dc 7fbe 0e1d f03d 6df8 5abe 5521 d5be
00000220: 16dc 903e 15f3 0b3d 12bc 363b d648 adbd
00000230: a67a 82bd dc3d a8bd a4a6 eb3e bdb0 1a3f
00000240: 665f 83be 7098 5ebe 3619 7a3e 0732 7cbe
00000250: 0454 71be ba87 163e 06f4 89be d00f b9bd
00000260: cdd1 38be b3d9 c8bd 84db a93c 08d4 ae3c
00000270: 0e06 68be 8d33 503e 2598 8c3e 59f5 523d
00000280: c9e9 d53d 9467 3cbe 4c59 a0be bf62 2cbe
00000290: 609b 80be b55e 7abe a669 a93d bd1f 5e3d
000002a0: e095 07be 23c5 463e a1cc 2e3e c71e 7fbd
000002b0: 38f3 b8bb 2368 343a debe b1be a200 53be
000002c0: 6174 923d e98f 54bd 99dc 3cbd 26d5 7d3d
000002d0: 82f0 6cbe 64d2 a6bd d850 ac3d c380 073d
000002e0: dec9 a5bd 190b 8dbb 92c9 46be e08e 513e
000002f0: baa9 7cbd bd84 26be efed 473c 3b62 753e
00000300: 2ab7 b2be 0805 6f3e 0132 d2bd 12fb 42be
00000310: 6d48 1f3e 5266 953e 7041 6e3e 6d3d 9dbe
00000320: 07fb 94be f6f8 733e a412 a2be d19f 803d
00000330: 25b2 3a3e ab2a 67bd 33d0 063e 7a80 103e
00000340: e27f 7dbd 0a31 6cbe fed6 31be e88e ebbc
00000350: 1fb4 e63d fcd4 7bbe f49c 71be 153f ae3d
00000360: 0aa2 a6bd f31b 7cbe 8b16 743e 19ad 043d
00000370: 2056 73bd cc60 e3bd 6342 a4bd 1fd5 183e
00000380: 56fa 5b3d e1a7 4fbe 21dc 483c f0be a83d
00000390: e4a0 b5be c4a7 773e adf0 1cbd 7169 47be
000003a0: 63ca a83e f70c dbbe 30fc 6dbd a824 0a3e
000003b0: 83de c3be 8472 673d 14e9 053e 116e 383e
000003c0: f85d 613e 2333 0dbe 5d65 d53d da5b feba
000003d0: 186d 543e 8f41 acbe d717 8a3e c85c 3e3e
000003e0: 8fff 2c3d a9c5 3e3e 164c 18be df7b 68be
000003f0: fc4c 16be 5d97 15bf 61f1 c0bd aca3 b3be

sequential/conv2d_2/Conv2D f4 [16, 3, 3, 8]
-0.058471896 0.15477626 0.0104507655 -0.010400943 0.20663796 0.29853994 -0.0090330215 0.065939225
0.24538954 0.33360323 0.26890415 -0.06745273 0.21901071 0.28104705 -0.29009944 0.37114915
0.22215976 0.20137955 -0.16122578 0.058162395 -0.080076516 0.15332688 0.078845516 0.1445977
-0.09331751 0.110777296 0.079293124 -0.09932577 0.09826887 -0.060923263 0.24498136 0.22909911
-0.02173368 0.20495111 -0.089664236 0.09999999 0.14680243 -0.14825858 -0.09128382 -0.03968468
0.2025638 0.081310004 0.091853395 0.22631027 -0.100478 0.052133292 -0.022805937 0.14277728
0.16687424 0.24096566 0.10925874 0.18250532 -0.14700666 0.173334 -0.06195455 -0.02286766
0.10470947 -0.021378484 0.021330902 0.18838084 -0.17300543 -0.15686215 0.036800258 -0.12452927
-0.08183387 0.18341748 -0.10219919 0.039261576 0.018945117 0.12972084 0.21146145 -0.07754807
-0.2171167 0.21749316 0.06399081 -0.23733991 -0.020130856 -0.05676874 -0.013811861 0.399721
-0.15529095 0.3439724 -0.18947944 -0.0062957904 -0.26411554 0.21233605 -0.25449094 0.045944925
0.15866636 0.06876669 0.0035871202 0.15460318 -0.10654903 0.011484176 -0.1775993 -0.24184528
-0.09862543 0.2230376 0.11493302 0.03944698 0.12552013 0.073068686 0.17464603 0.37292424
0.12038841 0.15589683 0.3013973 0.077209316 0.109292574 0.070238635 -0.32359284 -0.19987307
0.07849824 -0.21504329 -0.14432468 0.0094102165 0.018321872 0.0016970504 -0.17776273 0.09004273
-0.3661127 0.141248 0.033512436 0.033706818 -0.18058388 -0.25653517 0.34161374 0.011461199
0.03098515 -0.102889985 0.25609338 0.11135393 0.2527109 0.16578473 -0.04108068 0.041391343
0.13328153 -0.18062524 -0.20373352 0.007489434 0.21284375 -0.15019734 -0.2817434 0.10335582
-0.034384638 -0.47761124 -0.28654042 -0.031292316 -0.26829004 -0.3575567 -0.3004081 -0.32937583
0.010022584 0.1716892 -0.11181345 0.12567113 -0.19536617 -0.03502607 -0.08560364 -0.08624863
0.16552532 0.3306384 0.25027487 0.32596987 -0.24503447 0.50132793 -0.29221886 0.01519864
-0.35149917 -0.24382325 -0.2999211 -0.0812099 -0.24257009 -0.48917243 0.1881344 -0.52127695
-0.11535132 0.5248455 0.19175471 0.36549556 -0.026118603 -0.06079446 0.073003694 0.1521537
0.5562403 0.22343925 0.15263864 0.009036839 0.06204053 0.42887288 0.047566403 0.4332085
-0.36351413 -0.30137852 -0.20489027 -0.23079042 -0.23865004 -0.6126299 -0.06869826 -0.773705
-0.2329229 0.1316595 -0.030542767 -0.09997491 0.1389191 0.025143625 0.30926093 -0.1356646
0.31691876 0.32851312 -0.03607569 -0.06649531 -0.07113979 0.009577049 0.3516768 -0.009011432
-0.25528824 0.43865323 0.34168023 -0.018500224 0.006051133 0.21768299 0.28752977 0.13029134
0.10225143 0.0099207135 0.3119174 0.13834332 -0.019978393 0.10644153 -0.36765173 0.21721573
-0.0061051897 0.031931583 0.12007404 -0.046501778 -0.032892074 -0.09781081 -0.17172332 -0.043635074
0.16324922 0.16213167 -0.050874 0.2745631 0.040415075 0.06977547 0.12644906 0.42169607
0.058521993 -0.043414246 -0.3887893 0.022813607 0.12926354 0.044580765 -0.4012231 0.22206195
00000000: 3a80 6fbd ab7d 1e3e b039 2b3c b868 2abc
00000010: e798 533e 3ada 983e 3dff 13bc 250b 873d
00000020: 6547 7b3e 0bce aa3e cead 893e a824 8abd
00000030: 5844 603e 66e5 8f3e ea87 94be 4307 be3e
00000040: d97d 633e 7136 4e3e 5f18 25be b13b 6e3d
00000050: 28ff a3bd b901 1d3e c279 a13d 6b11 143e
00000060: 401d bfbd 35df e23d 6f64 a23d 4f6b cbbd
00000070: 3041 c93d ac8a 79bd 65dc 7a3e f598 6a3e
00000080: d50a b2bc b4de 513e e2a1 b7bd cbcc cc3d
00000090: 6053 163e 19d1 17be 03f3 babd 678c 22bd
000000a0: e36c 4f3e dc85 a63d a21d bc3d e1bd 673e
000000b0: 69c7 cdbd b889 553d 84d3 babc 3534 123e
000000c0: 15e1 2a3e b4bf 763e 0cc3 df3d ade2 3a3e
000000d0: ea88 16be 787e 313e 0ec4 7dbd f554 bbbc
000000e0: eb71 d63d ee21 afbc 25be ae3c e8e6 403e
000000f0: 5628 31be 79a0 20be debb 163d 3409 ffbd
00000100: 8498 a7bd cbd1 3b3e cf4d d1bd bfd0 203d
00000110: ca32 9b3c 8ad5 043e 5a89 583e 86d1 9ebd
00000120: d753 5ebe 87b6 5e3e 9d0d 833d 3c09 73be
00000130: 77e9 a4bc 5786 68bd 254b 62bc 3ba8 cc3e
00000140: 9704 1fbe 271d b03e e606 42be eb4c cebb
00000150: 273a 87be 9f6e 593e a34c 82be bf30 3c3d
00000160: 6f79 223e 8dd5 8c3d e415 6b3b 4c50 1e3e
00000170: 6136 dabd 2028 3c3c 97dc 35be 4aa6 77be
00000180: 21fc c9bd f863 643e 0162 eb3d 2893 213d
00000190: 5988 003e 09a5 953d 69d6 323e edef be3e
000001a0: 338e f63d 6ba3 1f3e bf50 9a3e eb1f 9e3d
000001b0: c9d4 df3d 46d9 8f3d f6ad a5be 87ab 4cbe
000001c0: afc3 a03d 4f34 5cbe d9c9 13be 4f2d 1a3c
000001d0: c017 963c 906f de3a 6f07 36be 5368 b83d
000001e0: 2073 bbbe 51a3 103e 5644 093d 2910 0a3d
000001f0: fbea 38be 9458 83be ffe7 ae3e c1c7 3b3c
00000200: 92d4 fd3c fcb7 d2bd ac1e 833e 870d e43d
00000210: 5363 813e 79c3 293e 3744 28bd f889 293d
00000220: f47a 083e d3f5 38be 859f 50be ed69 f53b
00000230: b6f3 593e 55cd 19be ac40 90be 37ac d33d
00000240: e8d6 0cbd 7689 f4be 6db5 92be 5f2c 00bd
00000250: 505d 89be ac11 b7be 17cf 99be f3a3 a8be
00000260: c435 243c 4bcf 2f3e 73fe e4bd efaf 003e
00000270: 120e 48be 7f77 0fbd f650 afbd 1fa3 b0bd
00000280: 787f 293e 7049 a93e 0724 803e 86e5 a63e
00000290: 51ea 7abe 0757 003f b69d 95be b703 793c
000002a0: b3f7 b3be cdac 79be 428f 99be 6051 a6bd
000002b0: 4b64 78be cf74 fabe 4ea6 403e 6872 05bf
000002c0: 503d ecbd 465c 063f 595b 443e 3c22 bb3e
000002d0: aef6 d5bc 9d03 79bd f682 953d 2ece 1b3e
000002e0: c465 0e3f 42cd 643e 4e4d 1c3e 400f 143c
000002f0: 361e 7e3d 3a95 db3e fdd4 423d 81cd dd3e
00000300: 861e babe 494e 9abe c1ce 51be 5354 6cbe
00000310: ad60 74be 50d5 1cbf acb1 8cbd 8811 46bf
00000320: 5783 6ebe bfd1 063e d334 fabc a5bf ccbd
00000330: cf40 0e3e 01fa cd3c 7357 9e3e a9eb 0abe
00000340: 2d43 a23e df32 a83e 1ac4 13bd b12e 88bd
00000350: bdb1 91bd 0ee9 1c3c fb0e b43e afa4 13bc
00000360: 24b5 82be 2897 e03e b6f0 ae3e c88d 97bc
00000370: 9548 c63b 4ae8 5e3e 1a37 933e 186b 053e
00000380: 3369 d13d 7d8a 223c a3b3 9f3e dfa9 0d3e
00000390: baa9 a3bc 04fe d93d d93c bcbe cd6d 5e3e
000003a0: 0b0e c8bb b1ca 023d 61e9 f53d a678 3ebd
000003b0: d7b9 06bd 0951 c8bd 3dd8 2fbe b1ba 32bd
000003c0: ce2a 273e d805 263e 4161 50bd 8993 8c3e
000003d0: 478a 253d 71e6 8e3d dd7b 013e 8ce8 d73e
000003e0: c2b4 6f3d 23d3 31bd 640f c7be 9ae3 ba3c
000003f0: a95d 043e 529a 363d 1d6d cdbe 3564 633e

sequential/conv2d_3/Conv2D f4 [16, 3, 3, 16]
-0.07686951 -0.09168723 -0.06855008 -0.1876681 -0.035880018 0.043506134 0.063255325 0.27863854
-0.35854173 -0.05198806 -0.1120164 -0.2979469 0.114518315 -0.36207992 -0.19833866 -0.12072289
0.07740361 -0.42594796 0.29416084 -0.51189417 0.119907916 -0.053296354 -0.00011228613 0.022031687
-0.062301435 -0.5817115 0.026526107 -0.34061798 0.044551104 -0.2153682 0.019210642 0.026635185
0.09010031 0.04379973 -0.089529924 -0.34188455 -0.06430705 0.20057757 -0.116325274 -0.14019442
0.0915716 -0.4794674 0.1485676 -0.1531661 -0.07185568 -0.32590765 0.16725607 0.048235375
-0.07009642 -0.019521268 -0.05121796 -0.23194835 -0.00412721 -0.20623825 -0.07517798 0.10887164
-0.19961485 -0.12869878 -0.1735625 -0.3548623 0.11540398 -0.22150142 -0.46814552 -0.29804313
-0.11578135 -0.12316419 0.2084967 -0.34146854 0.086432755 0.14329156 0.122919865 -0.10980262
-0.21372898 -0.34698796 -0.00025607718 -0.61472696 0.09483241 -0.00357447 -0.10976465 -0.15551761
0.14270595 -0.2714609 0.123304814 -0.19456612 0.0011036799 -0.08426661 0.054400504 -0.07139987
-0.13643448 -0.11413191 0.25789738 -0.31564936 -0.29693568 -0.02918747 0.040429056 -0.20852977
0.15308928 -0.24194819 -0.091410786 -0.15529177 0.23652145 -0.05452654 0.02833703 0.17681341
-0.046797644 -0.086509794 -0.008222895 -0.39768642 0.13434869 -0.062303357 -0.2539256 -0.51141536
0.02833422 -0.37213752 0.14145468 -0.03019987 -0.25721088 -0.12884107 0.030791283 0.2998161
-0.10884411 0.05315979 0.12065573 -0.4426248 0.17382415 -0.1164156 0.11341269 -0.24725215
-0.056496453 -0.3311533 0.16413808 -0.088291556 -0.5454352 0.12796436 0.027311744 0.24015643
-0.12381011 -0.1886888 0.28776142 -0.2693672 0.03895496 -0.3440246 0.20570153 0.1202464
-0.25332034 -0.23509431 -0.04698209 -0.110729344 0.11025796 -0.029274385 -0.33208853 -0.13221951
0.026854742 -0.12255541 0.108720765 0.038928572 -0.20505658 -0.23965703 0.13125522 -0.024566267
-0.26012135 -0.1804093 0.11436042 -0.18938962 -0.0022414594 -0.15113318 -0.09741863 -0.034872547
-0.06821163 -0.086234264 0.10206062 0.10433916 -0.12899224 -0.31877473 -0.21603686 0.03499314
-0.23552498 0.017653242 0.4695356 -0.21012478 -0.052081946 -0.41971967 0.18771765 -0.11238895
0.043970168 -0.119970135 -0.14359407 0.10524832 0.26482052 0.25431952 -0.29493502 -0.3301425
-0.089070015 -0.22419436 0.2624564 -0.34431764 -0.18837981 -0.15124305 -0.30985552 0.084191814
0.07602812 -0.07283332 -0.0011721482 -0.14192191 -0.18265343 -0.38637483 -0.121045366 -0.107597396
-0.022240208 -0.12876508 0.15722395 -0.31211954 -0.18204999 -0.3355727 0.09252051 -0.08257924
-0.057647586 -0.024677562 0.042638086 0.061667863 -0.04028023 -0.16894658 -0.42962846 0.01597462
0.043677032 0.08926504 0.42348745 0.051376663 0.0644722 -0.15614566 0.25375542 0.00910821
-0.17199972 -0.016158568 -0.18302341 0.058206122 0.3295252 0.3151187 -0.26547518 -0.09742445
-0.23562007 -0.1593054 0.44292617 -0.2980574 -0.31588072 -0.2088454 -0.17685004 -0.045395438
0.22926684 0.040696926 0.04072288 0.18416603 0.16051826 -0.2810231 -0.26333436 0.11021949
00000000: c36d 9dbd 84c6 bbbd fc63 8cbd 112c 40be
00000010: edf6 12bd 7d33 323d 028c 813d b6a9 8e3e
00000020: c892 b7be 6ff1 54bd db68 e5bd 7f8c 98be
00000030: 9488 ea3d 8a62 b9be 4a19 4bbe 903d f7bd
00000040: c985 9e3d da15 dabe 409c 963e 7f0b 03bf
00000050: 4892 f53d 474d 5abd 287b ebb8 cc7b b43c
00000060: ca2f 7fbd 0beb 14bf 474d d93c 7b65 aebe
00000070: 387b 363d 7b89 5cbe a35f 9d3c 0832 da3c
00000080: 8386 b83d 5867 333d 775b b7bd 7e0b afbe
00000090: 6ab3 83bd 3564 4d3e f23b eebd 208f 0fbe
000000a0: e489 bb3d c07c f5be 1b22 183e 93d7 1cbe
000000b0: 1229 93bd 5edd a6be 2d45 2b3e 7592 453d
000000c0: b68e 8fbd 11eb 9fbc ecc9 51bd de83 6dbe
000000d0: 8c3d 87bb 1f30 53be eaf6 99bd 18f8 de3d
000000e0: d667 4cbe 9dc9 03be 5eba 31be 83b0 b5be
000000f0: ec58 ec3d 45d1 62be c5b0 efbe 1c99 98be
00000100: c61e edbd 823d fcbd 2980 553e f7d4 aebe
00000110: a803 b13d 06bb 123e 69bd fb3d 32e0 e0bd
00000120: c5db 5abe 68a8 b1be 1942 86b9 bf5e 1dbf
00000130: 7f37 c23d a841 6abb 4acc e0bd 0240 1fbe
00000140: 8221 123e ecfc 8abe 3c87 fc3d 573c 47be
00000150: 5aa9 903a f993 acbd 10d3 5e3d 183a 92bd
00000160: 7bb5 0bbe febd e9bd 200b 843e cb9c a1be
00000170: f407 98be 901a efbc f098 253d d488 55be
00000180: 70c3 1c3e 44c1 77be 9435 bbbd ce04 1fbe
00000190: ae32 723e 3957 5fbd 0f23 e83c 930e 353e
000001a0: e3ae 3fbd 0c2c b1bd 52b9 06bc 8e9d cbbe
000001b0: b492 093e ce31 7fbd 8902 82be 1eec 02bf
000001c0: 2b1d e83c cf88 bebe 7fd9 103e b865 f7bc
000001d0: 25b1 83be eaee 03be 003e fc3c 7f81 993e
000001e0: a9e9 debd 14be 593d 5a1a f73d b89f e2be
000001f0: f5fe 313e 4d6b eebd ea44 e83d ab2f 7dbe
00000200: d368 67bd ed8c a9be d013 283e 34d2 b4bd
00000210: a4a1 0bbf 1709 033e e1bc df3c 91eb 753e
00000220: 2890 fdbd a337 41be 7755 933e 7fea 89be
00000230: 3c8f 1f3d fe23 b0be 6ca3 523e bf43 f63d
00000240: 34b3 81be 90bc 70be 4b70 40bd 11c6 e2bd
00000250: edce e13d d6d0 efbc 8207 aabe 8d64 07be
00000260: 7afe db3c 55fe fabd fea8 de3d 9173 1f3d
00000270: 5afa 51be a768 75be c567 063e 323f c9bc
00000280: a02e 85be 37bd 38be cc35 ea3d 5aef 41be
00000290: 73e5 12bb a8c2 1abe 6b83 c7bd 84d6 0ebd
000002a0: 8ab2 8bbd 979b b0bd 2905 d13d c5af d53d
000002b0: 8b16 04be 7136 a3be c438 5dbe f754 0f3d
000002c0: 762d 71be 889d 903c f866 f03e f32a 57be
000002d0: e153 55bd 7fe5 d6be 0e39 403e 2e2c e6bd
000002e0: 101a 343d e7b2 f5bd 530a 13be 6e8c d73d
000002f0: 8e96 873e 2b36 823e b901 97be 7008 a9be
00000300: 576a b6bd 3593 65be af60 863e 674a b0be
00000310: a3e6 40be 75df 1abe 62a5 9ebe c26c ac3d
00000320: a2b4 9b3d a329 95bd c4a2 99ba fa53 11be
00000330: 8009 3bbe ecd2 c5be a2e6 f7bd 065c dcbd
00000340: 1931 b6bc feda 03be 51ff 203e 22ce 9fbe
00000350: 506b 3abe 2fd0 abbe 657b bd3d 4e1f a9bd
00000360: e01f 6cbd 9928 cabc 46a5 2e3d 7197 7c3d
00000370: e2fc 24bd 5500 2dbe 43f8 dbbe 35dd 823c
00000380: b0e6 323d 97d0 b63d 59d3 d83e 5670 523d
00000390: 000a 843d a6e4 1fbe 3bec 813e 9a3a 153c
000003a0: b220 30be f95e 84bc 7d6a 3bbe 8b69 6e3d
000003b0: 87b7 a83e 3d57 a13e 5dec 87be 7886 c7bd
000003c0: 6346 71be f420 23be 38c7 e23e fb9a 98be
000003d0: 1ebb a1be 92db 55be 2d18 35be 91f0 39bd
000003e0: edc4 6a3e d2b1 263d 09cd 263d 0596 3c3e
000003f0: e65e 243e 42e2 8fbe c3d3 86be c2ba e13d

sequential/conv2d/BiasAdd;sequential/conv2d_1/Conv2D;sequential/conv2d/Conv2D;sequential/conv2d/BiasAdd/ReadVariableOp/resource f4 [8]
0.033367425 -0.009769909 -1.8056307e-06 -0.0126555655 0.017305696 0.025271293 0.021159595 0.049974274
00000000: 48ac 083d f811 20bc 0059 f2b5 4a59 4fbc
00000010: adc4 8d3c be05 cf3c e356 ad3c d3b1 4c3d

sequential/conv2d_1/BiasAdd;sequential/conv2d_1/Conv2D;sequential/conv2d_1/BiasAdd/ReadVariableOp/resource f4 [8]
0.005749982 -0.005616869 0.014123928 0.022608472 -0.07010653 -0.04181091 -0.011515447 -0.026774708
00000000: 586a bc3b b60d b8bb 0c68 673c 6735 b93c
00000010: 0394 8fbd eb41 2bbd 49ab 3cbc a256 dbbc

sequential/conv2d_2/BiasAdd;sequential/conv2d_3/Conv2D;sequential/conv2d_2/Conv2D;sequential/conv2d_2/BiasAdd/ReadVariableOp/resource f4 [16]
-0.09513256 -0.029124303 0.046477284 0.037221402 -0.02045695 -0.010280179 -0.07003733 -0.004647532
-0.25658065 -0.027073693 0.08504268 0.031931836 0.042215742 -0.011172834 0.08566845 0.060093597
00000000: dcd4 c2bd 1796 eebc f75e 3e3d 7875 183d
00000010: 5595 a7bc 326e 28bc bb6f 8fbd 534a 98bb
00000020: 8a5e 83be a6c9 ddbc db2a ae3d f5ca 023d
00000030: 6aea 2c3d 430e 37bc f172 af3d b424 763d

sequential/conv2d_3/BiasAdd;sequential/conv2d_3/Conv2D;sequential/conv2d_3/BiasAdd/ReadVariableOp/resource f4 [16]
0.061896876 -0.11513748 -0.044005476 -0.05378554 -0.10098221 0.09641916 -0.03449154 0.01500638
-0.1839677 0.023847576 -0.029327435 0.07029983 -0.032122634 -0.109147176 -0.19786678 -0.08439519
00000000: 9487 7d3d 33cd ebbd 163f 34bd 3a4e 5cbd
00000010: c3cf cebd 6977 c53d 0047 0dbd 52dd 753c
00000020: 0762 3cbe fe5b c33c 1740 f0bc 5bf9 8f3d
00000030: 0693 03bd 8e88 dfbd 979d 4abe 63d7 acbd
