app/src/main/ml/model.tflite (tflite, 11564 bytes, 6 tensors)

dense_2/bias f4 [12]
0	0xbdfab3f7	-0.12241357
1	0xbc32efaf	-0.010921403
2	0x3e38e056	0.18054327
3	0xbcc8879e	-0.02447873
4	0x3e910eee	0.28331703
5	0xbd2a46ee	-0.04157155
6	0xbe40a70b	-0.18813722
7	0x3dbb5927	0.09147864
8	0xbd6e9a5c	-0.058252677
9	0xbe2813f3	-0.1641386
10	0xbe8bb136	-0.2728364
11	0x3e184d7c	0.14873308

dense_1/bias f4 [8]
0	0xbdd87422	-0.105690256
1	0xbd9b75d9	-0.07590837
2	0x3e2bda60	0.16782522
3	0xbc6e9660	-0.014562219
4	0xbdbb424d	-0.09143505
5	0xbe507907	-0.20358668
6	0xbca0e2ff	-0.01963949
7	0x3cda65d8	0.026659891

dense/bias f4 [8]
0	0x3e365ad5	0.17808087
1	0x3cf308a8	0.029667214
2	0x3e5fb427	0.21846066
3	0x3da5a41d	0.08087943
4	0x3e0675a5	0.13130815
5	0xbc4575cb	-0.01205201
6	0x3db1a065	0.08673171
7	0xbda28b56	-0.079367325

sequential/dense/Tensordot/MatMul f4 [8, 123]
0	0xbddaeb49	-0.10689408
1	0x3db753ad	0.08951507
2	0xbf631fa0	-0.8872013
3	0xbc93f58f	-0.018061427
4	0xbd07f97f	-0.033196922
5	0x3e04e25f	0.12976979
6	0x3ee0a25d	0.43873873
7	0x3d844074	0.06457606
8	0x3daaff6d	0.083495
9	0x3e43c93e	0.19119737
10	0xbdfe9ae5	-0.124318875
11	0x3ee3c1a5	0.44483677
12	0xbe03780e	-0.12838766
13	0xbd4c8201	-0.04992867
14	0x3dd67181	0.10470868
15	0x3ec6c205	0.388199
16	0x3e589947	0.2115222
17	0x3d16cbaa	0.036815323
18	0xbee3882b	-0.44439825
19	0xbe9ed092	-0.31018502
20	0xbea3db1b	-0.32003102
21	0x3e88ec56	0.2674281
22	0xbe5caa67	-0.21549378
23	0x3e8d4f23	0.2759944
24	0x3bb80151	0.0056153913
25	0x3dad48e6	0.0846117
26	0x3d4274d6	0.047474705
27	0xbf451c8e	-0.76996696
28	0xbe0543c8	-0.13014138
29	0xbb3b5870	-0.0028586648
30	0x3dc728b4	0.097245604
31	0x3e4d8e40	0.20073795
32	0xbf2c8d2c	-0.6740291
33	0x3e683d5d	0.22679658
34	0xbca5f7b5	-0.020259717
35	0x3ee19335	0.44057623
36	0xbdf5ea6a	-0.120076016
37	0x3e4b0123	0.19824652
38	0x3e478424	0.19484001
39	0x3e8a6276	0.27028245
40	0x3e9c0c1c	0.3047799
41	0xbf0a34cd	-0.5398682
42	0xbf21d909	-0.63221794
43	0x3e55fa4c	0.20896262
44	0xbe6cad51	-0.2311299
45	0xbd7bba70	-0.061457098
46	0x3e1f2653	0.15541963
47	0xbed80a48	-0.42195344
48	0x3ec911b5	0.39271322
49	0xbd4abc37	-0.049495902
50	0xbf003591	-0.50081736
51	0x3e805562	0.25065142
52	0x3e266230	0.16248393
53	0xbe4eab30	-0.2018249
54	0x3e9c4fa8	0.30529523
55	0x3e7bd699	0.24593581
56	0x3e597314	0.21235305
57	0xbed6636f	-0.41872737
58	0xbe11e6b0	-0.14248157
59	0xbe1ec5d1	-0.15505148
60	0x3e894ff8	0.26818824
61	0xbe969ee4	-0.294181
62	0xbe5d8205	-0.2163163
63	0xbeab375b	-0.3344067
64	0x3df0e3c8	0.11762196
65	0xbce086c7	-0.027408017
66	0xbe43f17e	-0.1913509
67	0x3e17c81a	0.14822426
68	0x3dfa938f	0.12235176
69	0x3e44ed58	0.19231164
70	0x3e1ecddb	0.15508215
71	0x3edf541c	0.43618858
72	0xbf0d8185	-0.55275756
73	0x3e8cc668	0.27495122
74	0xbdde75f8	-0.108623445
75	0xbe268a16	-0.16263613
76	0x3e4fab30	0.20280147
77	0xbca7133b	-0.020394912
78	0x3cf576ce	0.029963877
79	0x3e539c0e	0.20664999
80	0x3ed01792	0.40642983
81	0x3c3f0ac2	0.01166028
82	0x3eb9a21d	0.36256495
83	0x3ea9dad5	0.33174768
84	0xbd919bdd	-0.07109807
85	0xbef8fb79	-0.48629358
86	0x3f0f8c7c	0.5607374
87	0xbe2d685b	-0.1693434
88	0x3f064765	0.5245269
89	0xbe81fbaf	-0.25387332
90	0xbeaf6834	-0.34259188
91	0x3ee9e60b	0.4568332
92	0x3d39c681	0.045355324
93	0xbd145814	-0.03621681
94	0x3e41dbc5	0.18931492
95	0x3d8a5d05	0.06756023
96	0xbed4cc15	-0.41561952
97	0x3e49f354	0.19721729
98	0x3ea85c2a	0.32882816
99	0x3e9a50c4	0.30139744
100	0xbe2d8734	-0.16946107
101	0x3eebbcf9	0.46042612
102	0xbcbc3d99	-0.02297859
103	0x3ea76938	0.32697463
104	0x3eae515a	0.3404644
105	0x3e5b18d5	0.21396191
106	0xbf210b6d	-0.6290806
107	0x3f29e1e8	0.6636033
108	0x3e44e396	0.19227442
109	0x3f2a6481	0.66559607
110	0x3ef47915	0.47748628
111	0x3f03f750	0.51549244
112	0x3eef8778	0.46783042
113	0x3ea88b30	0.32918692
114	0xbf12cf8a	-0.5734793
115	0x3d6495ae	0.05580681
116	0x3af7015d	0.0018845011
117	0xbefa7b28	-0.48922086
118	0xbef8e321	-0.48610786
119	0xbecf54c5	-0.40494362
120	0xbeda63b9	-0.42654207
121	0x3da8cade	0.08241819
122	0xbed3d06d	-0.41369954
123	0xbdf61d2d	-0.120172836
124	0x3e6b854b	0.23000066
125	0xbe2e7ab9	-0.17039002
126	0xbe50c30d	-0.20386906
127	0xbee58963	-0.4483138
128	0x3dad8bec	0.084739536
129	0x3d986a52	0.07442154
130	0xbe21eca4	-0.15812927
131	0xbe60088a	-0.21878257
132	0x3e133bea	0.14378324
133	0x3ce2ab76	0.02766965
134	0x3eba7353	0.3641611
135	0x3df85c3d	0.12126968
136	0xbbf97745	-0.007613095
137	0x3e9377c4	0.2880231
138	0x3e9ac2b3	0.3022667
139	0x3e8f568c	0.27995718
140	0x3d1e4ca6	0.038647316
141	0xbe6e3c21	-0.23265125
142	0x3ea0b74e	0.3138985
143	0x3cdbf22e	0.026848879
144	0x3e134b16	0.14384112
145	0xbd0888a8	-0.03333345
146	0x3e998637	0.2998521
147	0xbe6b2e84	-0.22966963
148	0xbde94dac	-0.11391768
149	0x3ebf0e85	0.37315765
150	0x3ea53763	0.3226882
151	0xbe3aa5ab	-0.1822726
152	0x3d60d991	0.054894987
153	0xbe2df634	-0.1698845
154	0x3e83d96b	0.25751814
155	0xbe851243	-0.25990495
156	0xbd97aceb	-0.07406028
157	0xbe0c3cd2	-0.13695076
158	0x3e84fa61	0.25972274
159	0xbe02dd83	-0.12779813
160	0x3cab5398	0.020913884
161	0x3b96c57d	0.004601179
162	0x3de9d340	0.11417246
163	0x3e404e64	0.18779904
164	0xbde12e6f	-0.10995185
165	0x3f0d2979	0.5514141
166	0x3d4b768f	0.049673613
167	0xbe00cb4d	-0.12577553
168	0xbe819675	-0.25310102
169	0xbe78fbe5	-0.2431484
170	0xbef6ce8b	-0.48204455
171	0x3e86ae40	0.26304817
172	0xbe238022	-0.15966848
173	0x3e4c6553	0.19960527
174	0x3e330128	0.1748091
175	0xbecd0c18	-0.4004829
176	0x3d142811	0.036171023
177	0xbf02f5ca	-0.51156294
178	0x3cfd0e40	0.030890584
179	0xbdfe0d89	-0.124049254
180	0xbc859330	-0.016305536
181	0x3d80ceb0	0.062894225
182	0xbe95921f	-0.29213044
183	0x3f08d0a0	0.53443336
184	0xbe61dcdc	-0.22056907
185	0xbe078288	-0.13233387
186	0xbd22721f	-0.039659616
187	0x3e7a1d71	0.24425294
188	0x3eee25af	0.46513125
189	0xbee54b3f	-0.4478397
190	0x3e93fc61	0.28903487
191	0x3e950992	0.29108864
192	0x3e929b24	0.28633988
193	0xbdd4adde	-0.10384725
194	0x3e27552a	0.16341081
195	0x3f2555e1	0.64584166
196	0x3de904bc	0.11377856
197	0xbd007ecf	-0.031370934
198	0x3ccabd57	0.024748487
199	0x3e5ea23a	0.21741572
200	0xba9b8a80	-0.0011866838
201	0x3eafdd83	0.34348688
202	0x3e98e091	0.2985883
203	0x3e8c58df	0.27411553
204	0x3d7795db	0.060445648
205	0x3e8f9728	0.2804501
206	0x3eab3186	0.3343622
207	0xba3d7009	-0.00072264724
208	0xbf04a7f6	-0.5181879
209	0x3e96f02e	0.29480118
210	0xbe13c25a	-0.14429608
211	0x3ea7e8b8	0.32794738
212	0x3e383cd7	0.17991959
213	0x3d87db09	0.066335745
214	0x3d34c631	0.044134323
215	0x3e8848dc	0.26618087
216	0x3e5dfbbc	0.2167806
217	0x3e85c8b6	0.26129693
218	0x3e447905	0.1918679
219	0xbe0eb20f	-0.13935111
220	0x3e30a6e9	0.17251171
221	0x3e98b080	0.2982216
222	0xbeddce02	-0.43321234
223	0x3cc1480c	0.023593925
224	0xbb8cf150	-0.0043012276
225	0xbdcac728	-0.09901267
226	0xbdbe60df	-0.092958204
227	0xbe31a7c5	-0.17349155
228	0xbdca1ef9	-0.09869189
229	0x3ea74072	0.32666355
230	0xbe90e92e	-0.28302902
231	0xbd941eee	-0.07232462
232	0xbe5be308	-0.21473324
233	0xbe624007	-0.22094737
234	0xbe3ffc26	-0.18748531
235	0xbf03f5a4	-0.5154669
236	0x3dc3bc37	0.095573835
237	0xbef48f65	-0.4776565
238	0x3e944e11	0.2896581
239	0x3c5068e7	0.012720323
240	0x3e86acbe	0.26303667
241	0xbe8b5e25	-0.27220264
242	0x3d344b81	0.04401732
243	0xbecb7b2a	-0.39742404
244	0xbd982492	-0.0742885
245	0xbe2d3a6e	-0.1691682
246	0x3e9c4550	0.3052163
247	0x3da1d227	0.079014115
248	0x3e492ac6	0.19645223
249	0x3e2665d8	0.16249788
250	0x3ee8dee2	0.45482546
251	0x3e5cc94a	0.2156116
252	0x3de65189	0.1124602
253	0x3edc011f	0.42969605
254	0x3e749c7a	0.23887816
255	0xbe26f1f4	-0.16303235

sequential/dense_1/Tensordot/MatMul f4 [8, 8]
0	0xbfa8159b	-1.3131593
1	0x3e66fdc5	0.22557743
2	0xbe964a05	-0.29353347
3	0xbf49f1f0	-0.7888479
4	0xbf9de2ed	-1.2334877
5	0x3f6f9bee	0.93597305
6	0xbf7b6832	-0.98205864
7	0x3ef211ac	0.47279108
8	0x3f846eac	1.0346274
9	0x3ec005e9	0.3750451
10	0xbf1e4b6a	-0.6183382
11	0x3f39a6e8	0.72520304
12	0xbe21aab4	-0.15787774
13	0x3f62acb8	0.885448
14	0xbf80f897	-1.0075864
15	0xbf54aef6	-0.8307947
16	0x3f91df7e	1.1396329
17	0x3f59670d	0.8492287
18	0x3f4af0b2	0.7927352
19	0xbfbf4308	-1.4942331
20	0xbe50c470	-0.20387435
21	0x3eda2537	0.42606518
22	0x3faa5cb7	1.3309544
23	0xbeded826	-0.43524283
24	0x3d18d8da	0.03731618
25	0x3eaaf7f9	0.33392313
26	0xbfc1aa1d	-1.513004
27	0xbe449234	-0.19196397
28	0xbf23f14a	-0.6404005
29	0xbf296a69	-0.66177994
30	0x3f20137d	0.62529737
31	0xbfacbb57	-1.3494672
32	0xbf924930	-1.1428585
33	0xbf97583e	-1.1823804
34	0xbf714485	-0.9424518
35	0xbef2b5ff	-0.47404477
36	0x3f8e5cdc	1.1122088
37	0x3d75f7d3	0.060050797
38	0xbede465f	-0.43413064
39	0x3f983a0e	1.1892717
40	0xbe84b25f	-0.25917336
41	0x3f678879	0.90442616
42	0xbfa80f60	-1.3129692
43	0xbfcb4a73	-1.5882095
44	0xbf44280b	-0.766236
45	0xbd8b83f8	-0.068122804
46	0x3f55774c	0.8338516
47	0xbdc1bedb	-0.09460231
48	0x3ee1c8f3	0.44098625
49	0xbf90ca76	-1.1311786
50	0x3f1a9492	0.6038295
51	0xbe8d5ada	-0.27608377
52	0xbe168609	-0.14699568
53	0xbf91218e	-1.1338365
54	0x3f6a1b80	0.9144821
55	0x3fb54824	1.416264
56	0x3fa13f0c	1.2597365
57	0xbf9fd0bb	-1.2485574
58	0xbf7cd66a	-0.9876467
59	0x3e77d0a5	0.24200685
60	0x3f0053e1	0.5012799
61	0xbfb71cd6	-1.4305675
62	0x3f5f5165	0.87233573
63	0x3d80b22c	0.062839836

sequential/dense_2/Tensordot/MatMul f4 [12, 8]
0	0xbf097977	-0.53700966
1	0x3f273747	0.6531872
2	0x3e7af71b	0.24508326
3	0xbf27de4c	-0.65573573
4	0xbf2a808b	-0.6660239
5	0xbf35fe6a	-0.7109133
6	0xbf7c8700	-0.98643494
7	0xbf1971c6	-0.5993923
8	0x3f1ea6af	0.6197309
9	0x3f77999c	0.96718764
10	0x3f063d81	0.524376
11	0x3f15b2a4	0.5847571
12	0xbf10051e	-0.5625781
13	0x3f1e71f7	0.61892647
14	0xbf81b5a1	-1.0133554
15	0xbe0ca84f	-0.1373608
16	0x3ecb5a9b	0.39717564
17	0xbf8d91c6	-1.1060112
18	0x3f605be0	0.8764019
19	0xbd8c7291	-0.06857789
20	0xbf5b88a3	-0.85755366
21	0x3efca10c	0.4934162
22	0xbf0cd62d	-0.55014306
23	0xbf80703a	-1.0034249
24	0xbe23395c	-0.1593985
25	0xbec79731	-0.38982537
26	0xbf763999	-0.9618164
27	0xbf768853	-0.96301764
28	0x3d1f5f08	0.03890899
29	0xbf8f08d9	-1.1174575
30	0x3e9a3471	0.30118135
31	0xbecdddde	-0.40208334
32	0xbec49a7d	-0.38399115
33	0xbefcf95b	-0.49408993
34	0x3f48256a	0.7818209
35	0xbf334193	-0.70021933
36	0xbd54a3a8	-0.051913887
37	0xbf6a3cde	-0.91499126
38	0x3f825fed	1.0185524
39	0x3eed85d4	0.46391165
40	0xbd97b383	-0.07407286
41	0xbee277e0	-0.44232082
42	0xbf65697b	-0.89614075
43	0x3ebda144	0.37037098
44	0x3f748e87	0.9552998
45	0x3cdc9888	0.026928201
46	0x3d09e2b8	0.03366348
47	0x3e9b1519	0.30289534
48	0x3f76d84d	0.964238
49	0x3f2c7e32	0.6738006
50	0xbf693b58	-0.91106176
51	0x3ec8b05a	0.39197046
52	0xbd1ef21e	-0.03880512
53	0xbf559281	-0.8342667
54	0xbe991a5a	-0.29902917
55	0xbe6fc568	-0.23415148
56	0x3f50dfe9	0.8159166
57	0xbe55841a	-0.20851174
58	0xbeb94858	-0.36188006
59	0x3f0fcace	0.5616883
60	0x3f310d49	0.69160897
61	0x3f44ca2a	0.7687098
62	0xbf698ca5	-0.9123023
63	0xbf122ee9	-0.5710283
64	0x3c779433	0.015111017
65	0xbe1fb107	-0.15594874
66	0x3eee959f	0.46598527
67	0x3f3fe7ea	0.7496325
68	0xbf825663	-1.0182613
69	0x3f6a2f21	0.91478163
70	0x3f0c6331	0.54838854
71	0x3ebba7cc	0.36651456
72	0x3f64c468	0.8936219
73	0xbf07ecdc	-0.53095794
74	0x3e40db97	0.18833767
75	0xbf428a0a	-0.7599188
76	0x3e7bc199	0.2458557
77	0x3e749c1f	0.2388768
78	0x3effbd0c	0.4994892
79	0xbf468cbb	-0.7755849
80	0xbe551b52	-0.20811203
81	0xbf11ade2	-0.5690595
82	0x3ec3629f	0.3816118
83	0xbd93f0c1	-0.072236545
84	0x3e83a144	0.25708973
85	0x3f3e50c6	0.74342
86	0x3f38194d	0.71913606
87	0x3f086649	0.53281075
88	0xbf52fd20	-0.8241749
89	0x3f29cc13	0.6632702
90	0xbebd7e9b	-0.37010655
91	0x3f34b0d4	0.7058232
92	0xbf0351ff	-0.5129699
93	0xbf310a17	-0.6915602
94	0xbeac2a94	-0.33626235
95	0x3f69a047	0.9126019
